mlp_model.pth (torch, 87644 bytes, 5 tensors)

fc1.weight f4 [128, 35]
00000000: b528 1abe 2a97 55bd 63a8 df3b f1ff b83d
00000010: b03b 2c3e 3aad 033e 9b8d 2cbe 91a0 a9bd
00000020: 4f4e 293e 5235 1dbe 0e66 90bd c92e 093d
00000030: c89f 223e ee3a bebd 5e83 483d 8c19 1e3d
00000040: 5a4e 813d 2c7d 233e 910e 0e3c 5e2a abbd
00000050: 1ffa 873d 9241 7ebd b6cb a7bc fb7d 88bd
00000060: 53d5 043e 56e8 19be e7c4 23bd 4fff 61ba
00000070: 7a49 f3bc 77fe c53d 796d 203e 8c45 243e
00000080: 7f21 393d 0227 41bd d547 9e3a e220 e43d
00000090: dd4c b33c c7a9 2f3c 92fe cc3b 0be1 7b3c
000000a0: 75af 193d 03e8 92bd a8b3 e83d e4f7 213e
000000b0: d13b fa3d 7eaa b8bb 2f8b fabc c4d3 083e
000000c0: b223 ac3d 5e1e 24bd a59c 853d f070 37be
000000d0: 5d4e 0abe 6e25 96bd f113 e63d 0bd7 10be
000000e0: 4f57 ad3d b6d3 cc3d 8516 80bd 855c fd3d
000000f0: 6254 1e3e d607 f1bb ffd1 f3bd 72aa c8bd
00000100: fe62 11be 79ba 33bd cfa9 13be 552e 00be
00000110: 3419 b03c bc42 8c3d fd0a e4bd 4d47 57bc
00000120: 1acf 723d b969 e3bd 0de8 563d 4d1f c63d
00000130: 5876 3b3d e3c5 2dbe cb9b 22bd 4e90 e8bd
00000140: 5ce4 b33d 8a2a 3bbd ee89 083e 1612 1bbe
00000150: 3616 c33c f686 9abd d85c 35be 4db0 1e3d
00000160: 3067 17bd 87db 273e 45d6 35bd d631 b4bd
00000170: f823 1fbe f00b 85bd efab 82bd 8116 ff3c
00000180: 6296 013e fb82 593d b82a f53c 08be 9cbd
00000190: fca2 103d 01d4 bebd afc8 233e ed4a 173d
000001a0: ed81 bd3b 62ba dc3d 4c00 88bc 1935 dfbc
000001b0: 9ec6 003e 0eec 92bd 89c2 d9bc 3ffa 2e3c
000001c0: 20e0 3d3d 540d 303e 3a68 c6bd 805a 323d
000001d0: eeae 64bc 41ec abbc 672b 013e c636 f43d
000001e0: 0d1c 02be 975e 1a3e 8976 c1bd bdf3 93bd
000001f0: d047 d83d fdbe 13bd 6576 f53d 2fe0 85bd
00000200: d858 dd38 62af 5e3c 6910 093e 29ec a23c
00000210: d574 abbd fcf3 293e 66b4 46bd c72f c5bd
00000220: 02af 883d 8db7 db3b 36a1 f9bd 37d9 b03d
00000230: 4be2 bc3d e50b 06be 9207 e73d 230b 0cbe
00000240: 4d41 ce3d eb74 21bd 2984 86bc 17a7 2fbe
00000250: 7be2 b13d 24d2 733d 41f0 a43d c05c 963d
00000260: f9d4 ad3d ed95 19be 72ef 16be 8770 5ebd
00000270: 0909 093e e5d8 7ebc 8b31 263e 1c7a 153e
00000280: 78da fdbd dae5 91bb 1e31 e4bd d522 1fbd
00000290: 11c3 7b3d e345 77bd 8628 c9bd c1ee ccbc
000002a0: 5649 fcbd 73e2 533d e9e7 a63d 28c6 fbbd
000002b0: a849 01be 97d2 24bd b124 143d 63df 92bc
000002c0: fa31 c73d a5b0 04be db74 d4bd d551 113e
000002d0: 04da 283e 65c5 b33c c8e6 fabd 3af1 35be
000002e0: 513d 05be 3b5e a33d 6ffd a53d 54c2 b03d
000002f0: 4748 f7bc 7a01 173e 153c f93d 982f 85bb
00000300: 49b3 a53d 8fed e4bd 5210 e43d f7ad 28be
00000310: b9b4 06be dd41 dcbd 6bf8 21be f545 fbbd
00000320: 8362 e93d 4108 0e3e d9d6 36bd c1c8 343e
00000330: 9c9f ccbd 041a cabd e9a8 143e 65db 173e
00000340: 4d66 023d c79d 3f3c c3ba c23c 70a5 19be
00000350: 06fd 2c3c 9cb4 5f3d a87b bbbc 7c6c 27bd
00000360: 56bd 8ebd 5be8 143d 271c 203e 1ce2 13be
00000370: 6b4f e73d 7c8b 27bd 9ea7 4cbd 9fac 18be
00000380: dc39 9dbc 9891 08be 89bb c8bd 9ab0 a0bd
00000390: ffb9 573d c25a 28be 04fc 253e 98ac 103c
000003a0: 239e c4bd 5688 0ebe decd b03c 3e24 323d
000003b0: 4cd2 f7bd 3b0d 70bc 2357 95bc 4025 e9bd
000003c0: e2b3 00be 58ea b53d a80f cf3d 7182 873d
000003d0: 92f5 773d bd69 ebbd cd98 08be 9279 813a
000003e0: 0723 d8bd abb4 9cbd 36cc b4bd d83d 09be
000003f0: d6fb 2a3d 90b0 04be f111 a53d 9881 89ba
-0.15054591 -0.052146114 0.006825493 0.09033192 0.16819644 0.1285905 -0.16850893 -0.08282579
0.16533779 -0.15352371 -0.070507154 0.033491883 0.15881264 -0.09288584 0.048953407 0.038598582
0.063137725 0.15965718 0.008670465 -0.0835769 0.06639504 -0.06207425 -0.02048288 -0.06664654
0.12972002 -0.15030035 -0.039982703 -0.0008621113 -0.029698122 0.09667676 0.1566676 0.16042155
0.04519796 -0.04715634 0.0012075851 0.111390844 0.021887237 0.01072163 0.006255933 0.015373479
0.037520844 -0.07173159 0.11362392 0.15817219 0.1221844 -0.0056355586 -0.030583946 0.13362032
0.08405246 -0.040068023 0.06524018 -0.17914176 -0.13506456 -0.07331358 0.11234272 -0.14144532
0.084639184 0.10001318 -0.06254295 0.12371162 0.15461877 -0.0073556704 -0.11905288 -0.09798135
-0.14197919 -0.043879006 -0.14420246 -0.12517674 0.021496393 0.06848666 -0.11134908 -0.013139558
0.05927954 -0.11104149 0.052467395 0.09673939 0.04576716 -0.16970019 -0.039699357 -0.11355649
0.087837905 -0.045694865 0.13333866 -0.15143618 0.023814302 -0.07545273 -0.17711198 0.038742352
-0.03696364 0.16392337 -0.044393796 -0.08798568 -0.15541065 -0.064964175 -0.0638045 0.03113866
0.12655023 0.05310343 0.029927596 -0.07653433 0.035311684 -0.0931778 0.15994523 0.03693669
0.0057833106 0.10777737 -0.016601704 -0.027246999 0.12575766 -0.0717393 -0.02658202 0.0106797805
0.04635632 0.17192584 -0.096878484 0.04354334 -0.013957722 -0.020986678 0.12614213 0.1192451
-0.12706013 0.15075146 -0.09446437 -0.07224224 0.10560572 -0.036070812 0.119854726 -0.065369
0.000105546496 0.013591619 0.13385166 0.019888 -0.08371893 0.16596979 -0.048511885 -0.096282534
0.06674005 0.0067052306 -0.12188952 0.086351804 0.092228495 -0.13090475 0.11280741 -0.13676123
0.10071049 -0.039418142 -0.01642044 -0.17153583 0.08685776 0.059526578 0.08053637 0.073419094
0.08487887 -0.14998598 -0.14739779 -0.054306533 0.13382353 -0.015554641 0.16229837 0.14597362
-0.12395185 -0.0044524493 -0.11142181 -0.038851578 0.061465327 -0.060369384 -0.09822182 -0.02501619
-0.12318675 0.05172963 0.08149702 -0.12293655 -0.12625754 -0.040239897 0.036167804 -0.017928785
0.09726329 -0.1295801 -0.10373851 0.14191373 0.16489416 0.021944711 -0.12251049 -0.17767802
-0.13011672 0.079769574 0.08104979 0.08630815 -0.030185832 0.14746657 0.12169663 -0.0040645115
0.080908366 -0.11178123 0.11135925 -0.16472612 -0.13154878 -0.1075475 -0.1581742 -0.122692026
0.11395743 0.13870336 -0.04463849 0.17654707 -0.099913806 -0.09868243 0.14517559 0.14829786
0.031835843 0.011695332 0.023770696 -0.15004516 0.010558372 0.054615602 -0.022886112 -0.040874943
-0.06969707 0.036354404 0.1563574 -0.14441723 0.11294445 -0.040904507 -0.04996454 -0.149096
-0.019192629 -0.1333679 -0.098013945 -0.07846184 0.052667614 -0.16440871 0.16209418 0.008830212
-0.09600475 -0.13919196 0.02158254 0.043491594 -0.12100658 -0.014651592 -0.018230027 -0.11384058
-0.1256862 0.08882588 0.10110408 0.066166766 0.06053693 -0.11494777 -0.13339539 0.000987815
-0.10553556 -0.07651647 -0.08828013 -0.13402498 0.041744076 -0.12957978 0.08060063 -0.0010490892

fc1.bias f4 [128]
00000000: 8031 c3bd 3ebd 113e 6535 2abc 834c ddbd
00000010: 6471 b23d e0ad 1b3d 833a fe3d 2285 b1bc
00000020: f978 103e 15ad 12be 8808 883d 3b22 cd3d
00000030: 9a7a 943d 152f 243d 4923 55bd 8901 18be
00000040: a97e 10be e607 88bd a500 ed3d cde2 e8bd
00000050: a334 e1bd 1abf e23d d894 26bd 95f4 9d3d
00000060: c3c9 05be 339e 0b3e 6868 a1bd efe8 0dbd
00000070: b72f f8bd 382c 7fbd addc f5bd 8aa2 fcbd
00000080: 88be a23d 3c9d 50bb 2e01 01bc 1728 1ebe
00000090: 977b ddbd a501 db3d 3e28 de3d 76ee aabd
000000a0: 96ba b6bc 54f9 ad3d 39e1 e23d 66e4 f1bc
000000b0: 4f65 593d 200b 333e 0c4d f03b 234e 8ebb
000000c0: b5c6 17be 492b ea3d 253c febc 0767 8ebd
000000d0: 6150 f43d 984e 263e 05f5 053e 5267 8d3d
000000e0: 2304 ddbd c126 f43d c883 c8bd 6f32 fb3d
000000f0: 8366 19be c91e 12be 95ba fe3d 5b5b dcbc
00000100: edb0 3f3b 243b ec3d f381 96bd e2c4 ca3d
00000110: dffd f8bd 20eb 98bd b282 10bd f08a b9bd
00000120: d7ff 773b 17ab e43c aba8 643d 4977 09be
00000130: a188 6d3d 3862 be3d 1435 01bd d96b 42bd
00000140: 68bd 103d 6914 59bc 6fda 90bd 85d0 0abd
00000150: 2b0b 20be 7353 993d a9f6 003e 20d2 11be
00000160: f60a 1c3e 624e 1abe 939b 98bd d679 cebc
00000170: 2504 173e 86f9 b0bd c7fa db3b 42d1 bebd
00000180: b21b 0abe 590b 0e3e 3144 213c 2396 06be
00000190: c25d cabd e053 3f3c 8262 a23d c351 5abd
000001a0: 6dc0 a63d cae2 0abe 3ff2 983d bad5 203e
000001b0: ded3 4fbb c25b 10be f149 0f3c 8f56 eb3d
000001c0: 45e3 fe3d a78b e23d 32b6 56bd fe34 293e
000001d0: 44ec 973d 9854 07bd 4261 03be 6b7e 87bd
000001e0: 3399 033e 9e07 a3bc 6779 c13d 0b7f c33d
000001f0: 33d9 9abd d415 db3c b6b9 90bd 2e88 b1bd
-0.09530926 0.14232346 -0.010388707 -0.10805609 0.08713034 0.038007617 0.12413504 -0.021669928
0.14108647 -0.14323838 0.06642252 0.100162946 0.07249947 0.040083963 -0.052035604 -0.14844336
-0.14110817 -0.066421315 0.115723886 -0.11371384 -0.10996368 0.11071606 -0.040669292 0.07712666
-0.13065247 0.13634567 -0.07881242 -0.03464597 -0.12118476 -0.06229803 -0.12004981 -0.12335689
0.07946497 -0.0031832 -0.007873816 -0.1544498 -0.108145885 0.10693673 0.10847519 -0.08346264
-0.022305768 0.08494821 0.11078114 -0.029527854 0.05307513 0.17484713 0.0073334035 -0.0043428107
-0.14821894 0.11434037 -0.031034539 -0.06953245 0.119293936 0.16240919 0.13081749 0.069044724
-0.10791805 0.11921454 -0.0979076 0.12265479 -0.14980511 -0.14269556 0.124379314 -0.02689903
0.0029249743 0.11534718 -0.073490046 0.09900834 -0.12157797 -0.074667215 -0.03528089 -0.09059703
0.0037841701 0.027913613 0.055824917 -0.1342441 0.057991628 0.092960775 -0.03154476 -0.047466133
0.035336882 -0.013249495 -0.07072913 -0.033890266 -0.1562926 0.0748662 0.12594093 -0.14240313
0.15238556 -0.15068963 -0.074515484 -0.02520458 0.14747675 -0.08641343 0.0067132446 -0.093172565
-0.13487127 0.13871516 0.009842918 -0.1314321 -0.09881164 0.011677712 0.07928945 -0.05330063
0.08142171 -0.13563076 0.0746808 0.1570653 -0.0031711976 -0.14097503 0.008745656 0.11491119
0.12445692 0.11061793 -0.05241985 0.16524121 0.07418111 -0.03303966 -0.1283007 -0.06615909
0.1285141 -0.019901093 0.09446984 0.09545716 -0.07560959 0.026743807 -0.070666716 -0.08668552

fc2.weight f4 [128, 128]
00000000: 1388 99bd 637b 86bd b417 66bd b2cc 9e3d
00000010: f3f3 24bd 5295 c2bb e8a7 2dbd 346f 76bd
00000020: f660 183d 2b25 1b3d c1c0 ac3d 86da 57bd
00000030: 7e64 953c 6c0a 13bd 1448 753d 628c 4cbd
00000040: f561 0fbd 200c 4ebd f4ba 05bd fd63 1e3d
00000050: 5ac4 d5bd dc2e 69bd af30 1fbc 8131 72bd
00000060: 095b 873b a952 3e3d 87a4 0fbd 0da2 0f3b
00000070: a495 233d 0790 5b3d b57c b6bc f680 bebb
00000080: 84a4 9dbd f2ee 70bd b289 493c 6a93 82bd
00000090: 8b12 803d e5ed a63c ef5d 38bd 8f04 d9bc
000000a0: c2c2 363d 54b1 d8bb def2 9b3d e77b dbbc
000000b0: 0375 d6ba 1bd8 c5bc f90e 5d3d 9bea d83b
000000c0: 0407 173a eb27 34bd 43be 583d d4b4 a0bc
000000d0: b595 b63d a9ae 4bbd 3db5 973d dc9e 553d
000000e0: ff32 c93b ef74 2f3d 8fe2 043d 866a 35bd
000000f0: d22d 9fbc 00a8 6f3d 70ae 1ebc 7c31 b03d
00000100: 6d2d 4cbd f925 8f3d 91ec 7bbd 7625 4a3d
00000110: b178 3ebd 0fb6 8f3d c7fc 80bd 6c26 6fbc
00000120: 85db 82ba d378 5e3d a69a 953d cfe9 3cbc
00000130: fa42 7dbc 73d4 35bc cece 823d 02c1 363d
00000140: cd5f 873d 2930 6ebd 90f1 84bd 6a9c 76bd
00000150: 7c4e 44bd e446 923d 51c7 0abd e6b3 52bd
00000160: 6585 d4bc 5cf6 6e3d 1101 193d a033 e1bc
00000170: 3f88 da3b f972 0b3d adab 86bd 5f65 ac3d
00000180: 4594 6b3d 4ccd 57bd 4f32 60bd 8a0d 98bd
00000190: 0040 943d fe5a 893d 2744 9b3d 2f15 f7bc
000001a0: 250d 1dbd 9633 313c 7267 893c 1c2a 0d3c
000001b0: c80a 68bd 8243 963d f9fc 833c 5bb0 9abd
000001c0: f30a 04bd fbc1 95bd 9f97 0b3d f012 0abc
000001d0: 6b74 04bd ef03 9e3d c7b5 6cbc ea57 e7bb
000001e0: 8264 c5bc 79b8 eebc fc6c 89bb 3507 1ebd
000001f0: f1c6 95bc 65e5 0e3c 7d2f 953d a834 463d
00000200: da5c 44bd cd5c 53bd e316 e53b a931 403d
00000210: 8ce7 58bc 6d82 33bd 95d8 0cbd e220 40bc
00000220: a47e 40ba f1f2 9e3d aa8e 9e3d bb2b 3ebd
00000230: 81d7 9f3d 196b bbbd 505e 23bd 2d92 523d
00000240: 079c 2fbb d427 e1bc b6cd 48bc 8c68 a53d
00000250: b119 9d3d 8f9f 7cbc 47c1 e63c 986a 77bc
00000260: 7b9c 98bd 1e40 adbc d3fc e83c 85f2 203c
00000270: 405f 843d 9d5b acbd 970b 1dbd a1c4 babc
00000280: 0969 083d bfd9 82bc 3aed 91bd 622c 91bd
00000290: f308 4b3c 7458 e23c d64e 9e3d 8b78 613c
000002a0: a7d6 833c 0999 5d3d 2c45 4f3c 6950 9e3c
000002b0: 7b83 463d 3944 77bd d46c 793b e749 893d
000002c0: cefa 2fbd d03a 1cbd 572a 8b3d 0b3c 7b3d
000002d0: 5c04 69bd 9c7f 37bd 0b5b aabd bbc0 33bd
000002e0: 33e6 c7bd 6a54 2fbd e492 4d3d 34d7 67bd
000002f0: 3127 a9bd 42c7 683d e6e6 9fbd 41b7 6fbc
00000300: 52d3 a93d 16f3 e13c 1b52 4dbb 7ae2 883d
00000310: 9f2f 853d 8178 68bc 300d 203d 9a97 a53d
00000320: e341 c93c 2029 a3bd b0f5 9a3c 6992 ad3d
00000330: 3fff aabd e75a 68bc 3241 183d ccba 0cbd
00000340: df6f d4bc 0e4b 803d f2a3 133d 3650 3b3d
00000350: ad62 44bd 795c 54bd 3bbb 9d3a 92ae aabd
00000360: 4ead 46bd d8b0 1bb9 3fc6 363d 2c83 2fbd
00000370: 98de 8fbb 65a8 14bc 71e9 8abd 8615 98bd
00000380: 7530 a53d 6c94 993d 09ae e3bc 3d0f 2cbd
00000390: 0c12 0fbd 7a09 4b3c db49 46bd 83a6 553d
000003a0: aa6a 9e3d aa3a 8bbd 7e09 003d 8e9b ef3c
000003b0: d121 88bd be50 85bd 266e 8ebd b787 e0bc
000003c0: e93c 643d 684b 47bd be0e 123d b37b 7dbd
000003d0: 8f9f 4c3d b070 e9bb 3024 a73a 3c99 50bc
000003e0: ac94 0e3d 09b3 943c b8f0 9abd 93da 0ebc
000003f0: 02f0 9bbd 6ed9 d3bc 542e aabb 73c3 9e3d
-0.07496657 -0.06566503 -0.05617495 0.07753886 -0.04027171 -0.0059382105 -0.042396456 -0.060164645
0.037201844 0.037877243 0.084352024 -0.052698635 0.018236395 -0.03589861 0.059883192 -0.049938567
-0.03500553 -0.050304532 -0.032648996 0.038669575 -0.10437842 -0.056929454 -0.009716197 -0.05912924
0.0041307253 0.04646555 -0.035069015 0.0021916658 0.03993763 0.053604152 -0.022276262 -0.005813713
-0.076973945 -0.058821626 0.0123008955 -0.06375773 0.06253537 0.020377109 -0.045011457 -0.026491432
0.04461933 -0.006612936 0.076146826 -0.02679248 -0.0016361777 -0.024150899 0.053969357 0.006619764
0.0005761238 -0.04398338 0.052915823 -0.019617476 0.08915273 -0.049727116 0.07407615 0.052153453
0.0061401124 0.042836126 0.032442626 -0.04429104 -0.019431029 0.058509827 -0.009685144 0.086031884
-0.04984801 0.069896646 -0.061504904 0.04935213 -0.04650182 0.07017147 -0.062982135 -0.014596563
-0.0009983635 0.054314446 0.073048875 -0.011530354 -0.015457863 -0.011098015 0.06387101 0.04461766
0.066100694 -0.058151398 -0.06491387 -0.06020776 -0.04792641 0.071424276 -0.03388149 -0.051441096
-0.025942514 0.058340415 0.037354533 -0.027490437 0.006669074 0.034045193 -0.06575713 0.084177725
0.057514448 -0.05268602 -0.054735478 -0.07424457 0.072387695 0.067068085 0.075813584 -0.030161468
-0.038342614 0.010815522 0.01677296 0.008615997 -0.056650907 0.07337095 0.016111838 -0.075531684
-0.032237004 -0.073123895 0.034080144 -0.008427367 -0.032337587 0.07715594 -0.014447636 -0.0070600407
-0.024095777 -0.029140698 -0.0041939 -0.038581092 -0.01828334 0.008721684 0.07284448 0.04839006
-0.047940113 -0.051602174 0.0069912537 0.04692236 -0.013238799 -0.043825556 -0.034386236 -0.01172659
-0.00073430897 0.07761181 0.07742055 -0.046428423 0.07804776 -0.09151287 -0.039884865 0.051408935
-0.002679588 -0.027484812 -0.012256077 0.08076581 0.07670916 -0.015418901 0.028168334 -0.0151010975
-0.07451721 -0.021148738 0.028440868 0.009823446 0.0646348 -0.08415911 -0.03834113 -0.022798838
0.033303294 -0.01597297 -0.071253255 -0.070885435 0.01239227 0.027630068 0.077298805 0.01376165
0.016093565 0.054101024 0.012650769 0.019325452 0.048465233 -0.060367797 0.0038059251 0.06703549
-0.042963795 -0.038142025 0.06795185 0.06133656 -0.056888923 -0.044799432 -0.08318146 -0.043884974
-0.09760704 -0.042805113 0.050188914 -0.056601718 -0.08259428 0.056830652 -0.07807712 -0.0146310935
0.08292259 0.027581733 -0.0031329456 0.06683822 0.06503224 -0.014188887 0.039075077 0.08085556
0.02456755 -0.07966828 0.018915981 0.08475191 -0.083494656 -0.014181829 0.03717155 -0.03435783
-0.02593225 0.062643155 0.036045022 0.045730792 -0.047945667 -0.051846 0.0012033948 -0.08334078
-0.04850512 -0.00014847831 0.044622656 -0.042849705 -0.004390549 -0.0090733515 -0.06782807 -0.0742598
0.08065883 0.07499012 -0.027792947 -0.04200672 -0.03492932 0.012392396 -0.048410278 0.05216075
0.07735188 -0.06798299 0.031259052 0.029248979 -0.06647075 -0.06509541 -0.06954603 -0.027408464
0.05572215 -0.048655897 0.03565859 -0.061885547 0.049956854 -0.007124029 0.0012751874 -0.012731846
0.034809753 0.018151777 -0.07565445 -0.008719104 -0.07614137 -0.025860514 -0.005193511 0.07752123

fc2.bias f4 [128]
00000000: 3b10 603d 76fb c33b fa16 e5bc b8bd 5ebd
00000010: 4346 8abd 6245 0eba 3a1b f2ba 28f3 a4bd
00000020: 0bd1 c53d 7bd6 79bc 1854 05bd 1ba0 093d
00000030: 8df3 0abd 4003 84bc c99d 863d d56e 5cbd
00000040: 6085 1dbd 2e33 62bd 37c0 13bc 106b 5b3b
00000050: af07 77bd 18fc 20bd 935a 353d 758c 783d
00000060: fffd 663d 6dbc 833d 929d 583d 597a 19bd
00000070: 95ba c83b 24f7 8cbd c8fd 9fbb 3958 b43c
00000080: eef6 c3bd febd 173d 7543 c53c 86e6 a73d
00000090: a05e 913d 4f6c 51bd 74bd 27bb 7a07 893d
000000a0: 7e76 bb3d ce26 6d3d 1581 253c 3a03 60bd
000000b0: de20 97bd 4328 afbc f3aa ef3c f16b b13b
000000c0: 795e 883d 493d 1f3c 09a7 303d 3497 693c
000000d0: 9c86 623d be47 8dbd ad8b 36bd 289c fdbc
000000e0: 23d4 aabd 8f2f d43d d7a6 7bbd e755 14bd
000000f0: 2904 5e3c 1321 22bc 2db3 a0bc 98ed 3d3d
00000100: e167 1dbd 5295 6a3d 18d0 aabd c8e3 c3bc
00000110: 00bf 4b3d 53b6 12bd 86e2 143d 421b a5ba
00000120: d61a 86bc d72d 81bc 0180 bcbc 1979 9c3d
00000130: 1836 8b3c 3d40 94bd 1ad6 cc3d f627 a4bd
00000140: 80b3 b33d c20b 6f3d 2b46 92bc 7810 6f3d
00000150: 398e 48bd 37a8 7ebd 68b7 adbd 82d7 1b3d
00000160: db40 933c f5d6 5ebd 1ef0 b63b 0891 1f3d
00000170: 2545 4dbd a5d4 81bc 00cc 883d 9748 49bc
00000180: ac67 8cbd 6c7c 4e3d aead 1b3c 74d9 b83d
00000190: 885a 03bd 9771 b63d 5e73 33bc 4429 8cbd
000001a0: 6f41 dfbc 4904 a6bd b301 353d 69ec 8abd
000001b0: 17c4 8ebd d032 31bd 4e5b 18bc 82e8 3bbd
000001c0: a8ff 323d ee28 96bd e5c7 48bd 3abd 01bd
000001d0: 8279 1e3d 5806 a53c 0cc0 88bd 4854 8e3d
000001e0: 96ca f33c 2fe4 9abc 508d 263b eef9 b73d
000001f0: 4d35 e9bc f16a 3fbc b7e5 a7bd fc26 4cbd
0.05470298 0.005980904 -0.027965058 -0.05438015 -0.067516826 -0.0005427209 -0.0018471249 -0.08054191
0.096590124 -0.01524889 -0.0325509 0.033599954 -0.033923674 -0.016114831 0.06573064 -0.053816635
-0.038457274 -0.05522459 -0.009017996 0.0033480562 -0.060310062 -0.039302915 0.04427583 0.060680825
0.056394573 0.06432424 0.052884646 -0.037470195 0.006125758 -0.06883076 -0.004882548 0.022014724
-0.095685825 0.037046425 0.024080018 0.08198266 0.070981264 -0.05112868 -0.00255951 0.06690879
0.0915346 0.057898335 0.010101576 -0.054690577 -0.07379316 -0.021381503 0.02925632 0.005414479
0.06658644 0.009719201 0.043128047 0.014257241 0.055304155 -0.06898449 -0.0445668 -0.03095825
-0.08341243 0.103606336 -0.061438408 -0.036214735 0.013550797 -0.009895581 -0.019616688 0.046369165
-0.038429145 0.05727131 -0.08340472 -0.023912326 0.0497427 -0.03581841 0.036348842 -0.0012596624
-0.016370218 -0.015768928 -0.023010256 0.07640285 0.016993567 -0.07238815 0.10001774 -0.080154344
0.08774471 0.058360822 -0.017855724 0.058365315 -0.04896376 -0.06217214 -0.084822476 0.03804732
0.017975261 -0.054404218 0.0055828234 0.038956672 -0.05011477 -0.015848467 0.06679535 -0.012285373
-0.06855711 0.050411627 0.009501858 0.09025851 -0.03206876 0.08908384 -0.010952799 -0.06843808
-0.02725288 -0.08106286 0.044191074 -0.06783373 -0.06970995 -0.04326135 -0.0092991125 -0.045876034
0.043700844 -0.073320255 -0.04901876 -0.0316746 0.038690098 0.020144626 -0.06677255 0.06949669
0.029759686 -0.018907635 0.0025413819 0.08983217 -0.028467799 -0.011683212 -0.081981115 -0.049841866

fc3.weight f4 [1, 128]
00000000: a84c 34bd fa5c 89bd c4af c23c 25ea 80bd
00000010: dc81 603d 242b 5f3c c37d 8abd 3930 dd3b
00000020: 1b53 513d 612e b3bd 5d79 973d 3244 50bd
00000030: 46f3 9cbd 5617 33bd 5bbb b8bd becd 6c3d
00000040: 0627 30bd 093f 0ebd 6c0d 8c3d f67a b9bc
00000050: 159d 3ebc c6dd 8fbd 6020 893c bc37 c9bc
00000060: d622 e4bc ad2a a4bd 8df2 3c3d 1715 723d
00000070: 8683 483c 6061 22bd 9409 863d 025d 0cbd
00000080: 74e7 9abd 9ec6 203d e917 9bbc 4525 ab3d
00000090: a29c 8ebd c7bd 863b 83d1 adbd 7795 a5bd
000000a0: 1fa2 c63d 65da 63bd 1fb6 e33c 5800 dd3d
000000b0: e1a7 adbd 4d29 163d 07ba 01bc 882c 6c3d
000000c0: 44b9 933d 5cf5 31bd 4aee cfbc e7ed 963d
000000d0: fb3c 45bd e508 b8bd ef74 a8bc 49a6 bebc
000000e0: 3235 1ebd f452 173d e54f 5b3d 7944 903d
000000f0: f8a5 78bd caa3 72bc a22e 8c3c c2cc 5c3d
00000100: 8423 c83c 571e 9b3d b94a 883d 9c05 5e3d
00000110: d9cc 4dbd f2f1 3a3d 2ef2 853d 3ac8 aa3d
00000120: 99a4 3bbd 9103 55bd cd0c 873d 09ca 65bd
00000130: c1aa b13d eb57 c4bc 0cb5 673d faa1 51bd
00000140: 743e 2d3d 5e53 243d bd9e c23c d5c6 903d
00000150: 7f53 913d 9a78 81bd a228 493d d5ec 053d
00000160: 6763 293d c0db 2abd 7293 a23d 33c8 fc3d
00000170: b96e 563d afa4 c7bd caab 9abc 069d 5c3d
00000180: 91cb 8d3d 4677 75bc 72be ab3b 8ca4 413d
00000190: 20f2 d43c ec43 cd3c 6f58 8d3d 4e88 443c
000001a0: 5fa9 4fbd d240 163c 0877 52bd 7ae8 b4bd
000001b0: d4e2 293d 7269 e7bc bf15 543d 4c56 c1bd
000001c0: 6cb4 e4bc 15e7 ce3c 5077 f63b 00b0 573d
000001d0: 7986 84bd 73d8 31bd bfd5 9fbd a302 4b3d
000001e0: 7aa9 00bd 5f7b c53d e548 bdbc a863 9f3c
000001f0: 090e 1abd 31b1 e13d a842 d4bd 999e 0cbd
-0.044018418 -0.06707187 0.023765452 -0.062946595 0.054811344 0.013621125 -0.067622684 0.0067501334
0.051104646 -0.087490804 0.07396195 -0.050846286 -0.07663588 -0.043723427 -0.0902011 0.0578134
-0.043005966 -0.034728084 0.068384975 -0.02264164 -0.011634131 -0.07024722 0.01673907 -0.024562709
-0.027848642 -0.08015952 0.046129752 0.059102144 0.012238389 -0.039643645 0.06544796 -0.034268387
-0.075636774 0.039251916 -0.0189323 0.08356718 -0.06963469 0.0041119787 -0.08487227 -0.08085149
0.09698891 -0.0556282 0.027796803 0.10791081 -0.08479286 0.03666048 -0.0079178875 0.057659656
0.07213071 -0.043446884 -0.02538218 0.07369595 -0.04815386 -0.089860715 -0.02056357 -0.02327265
-0.03862495 0.036944345 0.05354299 0.0704431 -0.060705155 -0.014809558 0.01711208 0.05390621
0.024430998 0.07574146 0.06654877 0.05420457 -0.050244186 0.045640893 0.06540333 0.083389714
-0.04581127 -0.052005354 0.065942384 -0.05610088 0.08675147 -0.023967704 0.056569144 -0.051179864
0.042295888 0.040118568 0.023757333 0.07069174 0.07096004 -0.06321831 0.049111016 0.032696564
0.041354563 -0.041713476 0.07938279 0.123428725 0.052351687 -0.09748208 -0.018880744 0.053860687
0.06923593 -0.01498205 0.0052412087 0.047276065 0.02599436 0.025056802 0.06901633 0.011995388
-0.050698634 0.009170728 -0.05138305 -0.08833404 0.041476086 -0.028248522 0.05177855 -0.09440288
-0.027918063 0.025256673 0.0075215474 0.05265808 -0.06470961 -0.043419313 -0.07804441 0.04956306
-0.031411625 0.09642672 -0.023106048 0.0194567 -0.03761104 0.11020125 -0.10364276 -0.034330938
