mlp_model.pth (torch, 87644 bytes, 5 tensors)

fc1.weight f4 [128, 35]
00000000: 8991 013d 4739 85bd 2ce3 923d b850 04be
00000010: c682 1ebd e73f cdbd d3d3 02be 8c78 69bd
00000020: 1376 493d c685 1b3e 618b d839 b4a6 08be
00000030: 21b8 26bd 460e 323e f115 f83d a2ad acbd
00000040: 0271 d13d d340 463d 59e3 a6bc 691e 25be
00000050: 41cc 18bd 503f ddbd 2aa6 cf3d 88fb 20be
00000060: 0df5 fdbd 0489 103e ce9d 283e 005b c0bd
00000070: c3b5 243e 52dd 5e3d c5d1 7e3d c710 053e
00000080: 2220 7f3b 2296 563c 3555 f2bd 0a17 81bc
00000090: 8212 04be 5e89 e33d df13 cb3c 0c0d d13d
000000a0: 289b 97bd 9729 03be 4c60 89bd 9536 6b3d
000000b0: 24f7 1b3e 6ca8 8a3c 5808 fbbd e30e 22be
000000c0: ffb3 1cbe ca04 cd3d 0d94 1abe c570 19be
000000d0: 3b4f 9cbc 00a3 9d3d 3f8e 863c 5ef6 f03d
000000e0: 5064 003e 89f4 85bd 3db4 72bd dcb7 b8bd
000000f0: 1684 2d3e 0bf3 023e d76b 1a3d d6b5 fbbb
00000100: b727 0e3e e4fc 203c da01 ae3b 3ee4 183e
00000110: 7141 d63d ef8f 0bbe dbda 28be 3c99 d13d
00000120: 6258 abbd ff0e a9bd 180f 243e f831 1dbe
00000130: 05d6 7dbd b3f1 313e 8e7b e33d 23b2 80bd
00000140: 12df 22be d478 10be e02a ab3b 9bf5 033a
00000150: ccb9 063e e05c 1f3e 4d54 1abe 5f61 5d3d
00000160: 8283 33bd 0aea 9bbd efe4 91bd 9510 5ebd
00000170: c525 383d c633 d93d 77f1 d73d bede eabd
00000180: 1b62 edbc 31d9 b8bb 9908 6ebd f8d1 603c
00000190: a763 2a3d d5c1 21be ff4f 7fbc 8c18 0dbe
000001a0: e10c 093d 79ee ca3d a381 15be 68b9 babd
000001b0: e37f 1ebe e945 92bd ae43 b63c a9ae f33d
000001c0: 8de0 0fbe bad7 c93d 6403 eb3a a6e9 eebc
000001d0: 4b62 8fbc 166d c8bd f8cb 0fbc d7cc c4bd
000001e0: 8152 c4bd 1cae 3abc c71f 73bd 4716 0abe
000001f0: c817 053e 35b2 aebd bc59 6d3d e980 b63d
00000200: f920 f2bc 79a9 833d f51a 26bd eaa4 36bd
00000210: 1e86 19be b8d2 07be bb80 a6bd 6b1e 84bd
00000220: d4e6 953d 9ac7 e43d 4085 2c3e 30d9 da3d
00000230: 5f29 033e f959 263e ea27 253e b48b 12be
00000240: 2d92 71bd 0fdc 9e3d c28b 83bd c250 953d
00000250: cab7 80bc f49f d3bd 3b97 b23d 8e0f 103d
00000260: fb31 283e e8bf 95bc d57c 04bd e94b 79bc
00000270: 4487 cabd 5056 5b3d 4061 5dbd 7b5e debc
00000280: 1caa 893d c9e3 323d 4bc7 8abc 7fdc ae3a
00000290: 2d63 cd3d f46a d6bd e6c5 ea3d 1c10 8c3d
000002a0: 74dc 1cbe 91df 0f3e 7e56 db3d 5ee0 01be
000002b0: 1d57 f3bd 54a1 ecbd fc3c 3fbe b72a d2bd
000002c0: 0ad6 0dbe 1926 13be de90 08bc 47ee 59bd
000002d0: 33b9 c13c 9522 893d 0f9b 223c c4bb 193e
000002e0: 1814 683d 7757 03be 65ef 323e 6917 ce3d
000002f0: b0ea 19bd e25c ec3d b0eb db3d 9fac 9fbd
00000300: faf0 21be 0f7b 923c 6c88 e43d 92a9 67bd
00000310: 62ee b53d 32f7 88bd 77db febd 8fc3 01be
00000320: d8e7 a33d 2a03 afbd 1c66 10be 8495 fa3d
00000330: 6a55 223d dce9 3abc 1600 4e3d 6007 ee3c
00000340: c55d 583d 573f 2cbd 8d37 073e 1f1b 8e3d
00000350: 508e ee3d 65c5 0d3e f603 0dbe cbed 1b3e
00000360: 0a6c ddbd 8f1f 58bd 2b0f 8b3c 8f44 1a3e
00000370: 3704 36be 0972 aebd 7080 4bbd 8506 55bd
00000380: 1540 9fbd f14c 0b3e 1d35 4dbc 6395 2dbe
00000390: a1aa 323e 098b 0abe 6d53 acbd de50 0ebe
000003a0: 5939 fabb 8876 fcbd 896d 01be f69c 8c3d
000003b0: dfcb dbbd bc08 b3bc c6a2 f0bd 2599 f2bd
000003c0: 9dd3 fabd c0b9 263e 36ff 673c d806 873d
000003d0: ffe8 15bd c88a 093e 9101 e1bd a36c 63bd
000003e0: 7fcf f53d 6661 fe3a ea62 afbc 18c7 e63d
000003f0: 9404 86bd 5efc 1d3e dc0a 8e3d 715a 14bd
0.031632934 -0.065050654 0.07172236 -0.12921417 -0.038698934 -0.10021954 -0.12776117 -0.056999728
0.04918487 0.1518775 0.00041302576 -0.13344842 -0.040702943 0.17388257 0.1211356 -0.08431555
0.10226633 0.048401665 -0.02037208 -0.16124882 -0.037304167 -0.108030915 0.10139115 -0.15720952
-0.12400255 0.14114767 0.16466448 -0.09392357 0.16084962 0.054410286 0.06221177 0.12994681
0.0038929065 0.013097318 -0.11832658 -0.015758056 -0.12897685 0.11110185 0.024789749 0.102075666
-0.074026406 -0.12808834 -0.0670782 0.0574251 0.15230995 0.016926013 -0.12257451 -0.15825991
-0.15303038 0.10010679 -0.1509554 -0.14984424 -0.019080749 0.076971054 0.01642525 0.11765741
0.12538266 -0.06540782 -0.05925392 -0.090194434 0.16944918 0.12788026 0.0377005 -0.0076815886
0.13882338 0.009825919 0.0053102793 0.14930817 0.10461701 -0.13629125 -0.16489737 0.10234305
-0.08366467 -0.082548134 0.16021383 -0.15351093 -0.061971683 0.17377357 0.111075506 -0.06283977
-0.15905407 -0.14108592 0.005223617 0.00050338515 0.13156813 0.15562773 -0.1507122 0.05404794
-0.043826587 -0.07612999 -0.07123744 -0.054215033 0.044957895 0.10605578 0.10544103 -0.11468266
-0.028977444 -0.0056411256 -0.058113668 0.013721935 0.041598942 -0.15796597 -0.015583037 -0.13778895
0.033459548 0.09908766 -0.14600234 -0.09117395 -0.15478472 -0.071422406 0.022249069 0.11898548
-0.14050503 0.098556 0.0017930088 -0.029164147 -0.017502924 -0.097864315 -0.008776657 -0.096093826
-0.09586049 -0.01139405 -0.059356477 -0.1348506 0.12997353 -0.08530084 0.057946905 0.089113064
-0.029556738 0.06428809 -0.040553052 -0.044590868 -0.14992568 -0.13263977 -0.08130022 -0.06451114
0.073194176 0.111708835 0.16847706 0.106859565 0.1280875 0.1624526 0.16128507 -0.14311105
-0.058977295 0.077568166 -0.06423141 0.07290794 -0.015712637 -0.10333243 0.08720251 0.035171084
0.16425316 -0.018279985 -0.03234561 -0.015215852 -0.09889081 0.05354911 -0.054047823 -0.027144661
0.06721899 0.043674264 -0.016940733 0.001334086 0.10028682 -0.104696184 0.114635274 0.0683901
-0.15318471 0.14050128 0.107098565 -0.12683246 -0.1188185 -0.115542084 -0.18675607 -0.102620535
-0.1385118 -0.14370002 -0.00833532 -0.053205755 0.02364788 0.06696049 0.009924664 0.15013033
0.056659788 -0.12826334 0.17474134 0.10063059 -0.03757733 0.115411535 0.10738313 -0.07796597
-0.15814582 0.017880945 0.11158833 -0.0565582 0.088833585 -0.06687774 -0.12444203 -0.12672256
0.08003205 -0.08545525 -0.14101452 0.12235549 0.03963224 -0.0114082955 0.05029305 0.029056251
0.0528238 -0.042052593 0.13204785 0.06938767 0.11648238 0.13844831 -0.13771042 0.1522743
-0.108116224 -0.05276447 0.016975006 0.15065216 -0.17775045 -0.08517844 -0.049683034 -0.05200817
-0.077758946 0.1360357 -0.01252487 -0.16951518 0.17447902 -0.135296 -0.0841435 -0.13898036
-0.007636231 -0.123272955 -0.1263944 0.068658754 -0.10732245 -0.02185475 -0.117497966 -0.11845616
-0.12247393 0.16281796 0.014159968 0.06593102 -0.036599156 0.13431847 -0.10986627 -0.055523526
0.12002467 0.0019407689 -0.02140947 0.11268443 -0.06543842 0.15428302 0.06935665 -0.036219064

fc1.bias f4 [128]
00000000: 5f7a 033e 3c40 48bd 662c 793d 0bd9 1b3d
00000010: b76a b8bd f81a f6bd 1176 833d af77 db3d
00000020: 8242 6abd 6b86 3cbd ca2d 0fbe 6c5b 873d
00000030: 3598 a4bd dd29 b83c 52d1 6dbd c78c 11be
00000040: 6dc5 023e ffeb 55bd fdac eabd 4b2d 0cbe
00000050: 4885 353d 3772 743b 0754 b23d eb11 02be
00000060: 4a6c 6ebd bc94 2bbe 3f67 ed3d 7958 21bc
00000070: bd66 6cbd b91e 57bc eb67 4a3d 6b5d 193e
00000080: c95b 453c 1cde 0e3e e0fc d43d 73a9 bfbd
00000090: 0d5d 0abe 8a00 e43d 6e93 e7bb 1688 c7bd
000000a0: 10c6 973d 1171 21bd 05cb f5bd 480e 2dbc
000000b0: 1f0f 13bd 4dc0 ee3d 113a 9fbd be51 823d
000000c0: 96fc e0bd 0b71 0b3e a6b8 33be 7637 903c
000000d0: 4cb6 0abe 48c1 223e e755 dc3c a40f 333e
000000e0: 1291 debd d35d 7dbc d089 1e3e 7914 1bbe
000000f0: feb8 acbd 93b8 16be f7d7 c83d 4492 113e
00000100: 7342 363e c080 c83a 21f6 873d c320 343e
00000110: 3283 4d3d 0844 9dbd 0264 8f3d 3cff 8b3c
00000120: 09a9 c73d 4c8e 78bd a918 8b3d 01b3 eebd
00000130: 22bf a5bd f195 8e3d 9fcc abbc 00c2 28be
00000140: ded1 a9bd 346f f73d 49c3 383c c62f bfbd
00000150: a8f7 943d 476f 293d c7dc 25be 2ced 43bd
00000160: 61b3 94bd 0b95 29be b90f f2bd 5971 5dbd
00000170: a57a a23d dc31 13be 87e7 1a3e 830c ee3d
00000180: 9af0 043e 26a1 313e 0393 dcbb 95ce e43c
00000190: 1ed1 15be 41af dd3d 6fbd d6bd 8db8 efbd
000001a0: 0004 143e 66d1 25be a150 93bc b01e e93c
000001b0: 0ee5 1f3e cb3c 0e3d ce56 143e ae4f db3d
000001c0: 6acf c3bc 62d3 cbbc bfa2 d33d 3981 cdbd
000001d0: 223d 94bd 2394 933d 063c afbd 66db 7d3d
000001e0: b0c7 df3d 90d8 003e e942 de3d 6886 613d
000001f0: 84be 00be 19c7 0dbe c481 323d 3732 963d
0.1283965 -0.048889384 0.060833357 0.038048785 -0.09004729 -0.12016863 0.06419004 0.10716187
-0.057192333 -0.04602663 -0.13982311 0.06609234 -0.08036844 0.0224809 -0.05806095 -0.14213859
0.12770624 -0.052227017 -0.11458776 -0.13689153 0.04431656 0.0037299523 0.08707433 -0.12702148
-0.05820874 -0.16755956 0.11591958 -0.009847754 -0.057715166 -0.013129883 0.04941551 0.14977042
0.012045809 0.13951916 0.103997946 -0.09358492 -0.13512059 0.11132915 -0.0070671355 -0.09742753
0.07410824 -0.03941447 -0.120016135 -0.010562487 -0.035903092 0.11657772 -0.07774747 0.06363247
-0.10985677 0.13617341 -0.17550907 0.01760457 -0.13546103 0.15894043 0.02689643 0.17486435
-0.10867514 -0.015464264 0.15482259 -0.15144528 -0.08433722 -0.14718847 0.09806817 0.14215952
0.17798786 0.001529716 0.06638742 0.17590623 0.050173946 -0.076789916 0.07001497 0.017089479
0.09749038 -0.06068258 0.06791813 -0.11655236 -0.08093096 0.06962193 -0.020971594 -0.16480255
-0.08291982 0.12081757 0.011277028 -0.09335284 0.07273799 0.041365888 -0.16197501 -0.047833607
-0.07260776 -0.16560762 -0.11819405 -0.054063175 0.07933549 -0.14374489 0.15127383 0.1162348
0.12982407 0.1734663 -0.0067313924 0.027930537 -0.14630553 0.10824443 -0.1048535 -0.11705122
0.14454651 -0.1619316 -0.017982783 0.028457016 0.15614721 0.034725945 0.14486238 0.10708557
-0.023902614 -0.024881069 0.10333776 -0.10034413 -0.07238223 0.07205989 -0.085563704 0.061976813
0.10926759 0.12582612 0.10852606 0.05505982 -0.12572676 -0.13845481 0.043580785 0.073337965

fc2.weight f4 [128, 128]
00000000: 9fcd 863d 5b43 9ebc b7a3 8bbd dcea 5b3c
00000010: a181 503c 11fe 2abd 120d 45bd 2174 963d
00000020: d55e 9c3d 3f1c abbd b72c 883d 33bd 46bd
00000030: 8d12 1b3d 5b6a c13d 36e0 403b 8830 8a3d
00000040: a5cc 783d 38fd 04bd 14d2 113d d104 7d3c
00000050: 493d 21bb ddf6 aabb 3072 52bd f8f4 6dbc
00000060: 6f33 883c 1153 e3ba 00e2 bbbd b5be 5dbb
00000070: 5f5e d7bc 6f16 76bd 97db 113d 4ccf 52bd
00000080: 1169 9a3d 5f9d aa3d 1130 a6bd 698e a13d
00000090: 8575 4c3d 22c4 993c 7d29 13bc a14b c83d
000000a0: 93b2 0abd 2a85 fc3c e2f4 8f3d 4474 e3bc
000000b0: a69b b4bd 4a00 11bd 9ab4 ba3d a1c6 b8bd
000000c0: f5a0 6cbd 82a9 853c 186f 3f3d a459 5b3c
000000d0: d5f6 35bd 8440 053d 7add a2bd 223a 41bd
000000e0: 474c 79bd c4f2 4ebc 185b 8e3d 1097 9ebd
000000f0: fc31 8fbd 6e4d 23bd 3493 a83d fa76 8a3d
00000100: ffe0 f43c 0823 af3d 926a 0cbd 782e 42bd
00000110: b14f 9ebd 4b8c 5d3c 4c97 163d 8410 18bd
00000120: e382 19bd 6b1b e63c 9443 a3bd 330c 743d
00000130: a16b 7dbd 9cdc 0abc 63be 4ebb c943 163a
00000140: 90df 5cbd dc42 0e3d e9fd 9bbd 5b4d 89bc
00000150: 2dee aebc 5f7a b637 d21c 69bd f6a5 23bc
00000160: 91eb e33c 6db6 68bd 993e 77bd 1949 6bbc
00000170: 8888 ccbc 3c04 92bd 3632 083d edda 9bbd
00000180: 094b ee3c bf3d 77bd b315 78bd c02a e6bb
00000190: f46e 643c 8b37 a73b 8917 ab3d 9ca1 2c3c
000001a0: 83f6 bd3c c1c0 cabc 1c75 52bd 4544 59bd
000001b0: 766a c0bc c5e8 983d f709 99bc 2791 a33d
000001c0: b025 a6bd 52f1 383d 4229 8dbc b45b b23d
000001d0: 0997 46bd 7d26 a7bd d058 5abd ef0d eb3c
000001e0: e2c6 443b 5ca7 0cbd 2093 14bd 5285 bf3c
000001f0: f6b6 b83d 3c29 443d 67c8 f93c 8162 a43d
00000200: 2b1b 95bd 0298 193d ae70 37bd ecdc 593d
00000210: 8993 65bd cbac 83bc cdd6 72bc 355c daba
00000220: b749 233c 7e24 133d b1a2 443d 9e01 30bd
00000230: bafd 5a3d e508 933d 0a20 3cbc bc3d 20bc
00000240: 420a 1d3d 3a77 8ebb 9feb 63bd 8f5f 133d
00000250: 44ee 943d 0892 693d 282a a1ba 6b34 9e3c
00000260: 7fdd 8a3d 372e 12bd 95ed 313c c989 5c3d
00000270: 100d 543d 0c17 adbd 80d0 d53c 6b39 51bd
00000280: ab85 1b3d 52ac 6b3d 1811 3f3d 83f5 cbbd
00000290: a79a 983b acaa 7f3d 194b 13bd 7ffd ff3c
000002a0: 7086 473d c830 99bd 0a8e 453d 8bc8 3abc
000002b0: db2e 0dbd 92af 62bd 5fea 1cbd 9c14 933d
000002c0: 0ce1 33bd 3a8f 343d 4e8f 8cbd 792f 39bd
000002d0: 5f4f c73d 9324 41bd 041c 09bd 9d8d 91bd
000002e0: e54b 8a3d 052d b93d 40fc 5abd 1dc4 a83d
000002f0: b6ee 283b e151 6bbd 2cf6 883d 663a 223d
00000300: f550 18bd 962a 8d3d b33c 6f3d acd0 09bc
00000310: 98cf bd3d d160 993c d7a3 84bd 6458 35bb
00000320: 5a14 9abb 5efa b2bb e976 263c 38da a03d
00000330: 0486 9c3d b673 e0bd 38f6 633d 9c58 29bd
00000340: 3135 d43d 2600 13bd 2d00 48bd fc94 9f3d
00000350: c9ed 2ebd f329 303d c9b8 f7bc 137f 38bd
00000360: 7716 cf3c c3b1 843d bca6 78bc f4a9 4e3c
00000370: 99a2 0d3d 59c8 99bd 73ad b9bd 595a 90bd
00000380: 423b f93c ee86 d8bc 604e 30bd a624 9ebc
00000390: 63f5 a3bc a67d c9bd eaf0 dfbd 0b88 4e3d
000003a0: 5c54 93bd b5d0 c03c 4fa6 b2bd 880b e1bc
000003b0: 17e8 af3d 7f1e 963d 472b 1d3d 53ab 35bd
000003c0: 50d0 acbd 2f8f 933d a94b 0f3d 261b 4a3d
000003d0: aae6 40bd 1ad1 cbbc 783f 3f3c 1bc1 78bd
000003e0: a35f cbbc 268f c83d 89d6 643d 3c8d 323d
000003f0: c021 1b3d 2d04 b03d 41f3 d2bd b928 c33c
0.06582188 -0.019319227 -0.068183355 0.013422694 0.012726218 -0.041746203 -0.048108168 0.073463686
0.07635275 -0.08354997 0.06649154 -0.04852028 0.03785949 0.09444114 0.0029430515 0.06747538
0.06074204 -0.03246805 0.035600737 0.015443043 -0.002460318 -0.0052174167 -0.05137843 -0.014523737
0.016626088 -0.0017343481 -0.091739655 -0.0033835594 -0.026290117 -0.060079988 0.035609808 -0.051467225
0.07539571 0.083307974 -0.08114637 0.07888491 0.049916763 0.018770281 -0.00898206 0.0978005
-0.033861708 0.030825216 0.070291296 -0.0277654 -0.0881875 -0.035400666 0.09116478 -0.090222605
-0.057770688 0.01631618 0.046736807 0.013388071 -0.04442485 0.03253223 -0.079523996 -0.04717458
-0.06086376 -0.012631122 0.069509685 -0.07743657 -0.06991956 -0.039868765 0.08231202 0.06760974
0.029892443 0.085516036 -0.03428132 -0.047407597 -0.07730044 0.013522218 0.03676538 -0.037125126
-0.03747834 0.028089246 -0.07971874 0.059581947 -0.06187022 -0.008475449 -0.0031546585 0.00057321467
-0.053924143 0.03473173 -0.07616789 -0.016760519 -0.021353805 2.1753074e-05 -0.05691225 -0.009988299
0.027822288 -0.0568146 -0.060362432 -0.01436069 -0.024967447 -0.07129714 0.03325101 -0.07610116
0.029088514 -0.06036162 -0.06056757 -0.007024139 0.013942469 0.005103057 0.08354098 0.010536578
0.023188835 -0.024750115 -0.051381215 -0.053043623 -0.023488265 0.07466272 -0.01868151 0.0798667
-0.08112657 0.045152016 -0.017231587 0.08708897 -0.048483882 -0.08161638 -0.053307354 0.028693167
0.003002577 -0.034339294 -0.03627312 0.023379002 0.09019272 0.047890887 0.030491067 0.08026601
-0.072805725 0.03749848 -0.044785194 0.053189203 -0.056048904 -0.016073605 -0.01482172 -0.001665956
0.009966305 0.035923474 0.048006717 -0.042970292 0.05346463 0.07179431 -0.011482248 -0.009780344
0.03833986 -0.004347709 -0.055644628 0.035979804 0.07272008 0.057024032 -0.0012295889 0.019312104
0.06780528 -0.035688605 0.010859867 0.05384234 0.05177027 -0.084516615 0.026100397 -0.05108015
0.037969273 0.057537384 0.04664716 -0.09958937 0.004657108 0.062418625 -0.03596029 0.031248806
0.048712194 -0.074800074 0.048231162 -0.011400352 -0.034468513 -0.05534322 -0.03830945 0.07181665
-0.043915793 0.044081904 -0.06863271 -0.04521129 0.09731936 -0.04715402 -0.033473983 -0.07107089
0.06752757 0.0904179 -0.05346322 0.08240531 0.0025777048 -0.057451133 0.066875786 0.039606474
-0.03718658 0.06892888 0.058407497 -0.008411568 0.09268111 0.018722923 -0.064765625 -0.0027671093
-0.004702133 -0.005461975 0.010160186 0.07854122 0.07642749 -0.1095957 0.055654734 -0.04134427
0.10361708 -0.035888813 -0.048828293 0.077920884 -0.04270724 0.043008756 -0.03023948 -0.045043062
0.025279267 0.06479218 -0.015176471 0.012613762 0.034578893 -0.075089164 -0.09066286 -0.070484824
0.030423764 -0.026431527 -0.043043494 -0.019304585 -0.02001447 -0.09838419 -0.109346226 0.05042271
-0.07193825 0.02353702 -0.08723127 -0.027471319 0.085891895 0.073300354 0.03837135 -0.04435284
-0.0843817 0.072050445 0.034984265 0.049342297 -0.04709498 -0.02487998 0.011672847 -0.060731035
-0.024825877 0.097929284 0.05586866 0.043591723 0.037873983 0.085945465 -0.10300303 0.023823129

fc2.bias f4 [128]
00000000: 58a3 c1bc ff49 a2bd 634d cdbd 6914 303d
00000010: b23c 9b3c 2de8 03bd 383e d6ba bcc8 893d
00000020: 30a0 00bd ad60 913d 115b 7abd 7465 ec3c
00000030: 9fd6 2f3d a8fc bcbc fe7a e5bb 99ba 3abd
00000040: 5e4a 8ebc 18ab 7a3d 10dd 40bd b954 fe3c
00000050: d960 603d 7466 b63d b5cf 1a3d 7ff2 59bd
00000060: 8b34 4b3c c4d8 cbbc d884 b13d f205 853d
00000070: c4ab 76bd a702 d23d a320 d33d 598c 37bd
00000080: 2d29 a33d 3d73 8f3d 02ea 7a3d d16b 143b
00000090: d03c 11bd 6526 f7bb cab6 3e3c d23c 2cbb
000000a0: b3f5 b13c 4666 b33d 35af 933d a193 4c3d
000000b0: 1b54 143d f964 563d 5970 09bc e313 dcbc
000000c0: 6264 c5bc db0c 2bbc 4c3a 1cbd 3ef9 adbd
000000d0: 3d8a d43d 12d9 0bbd 23b4 e1bc 94cc 2b3d
000000e0: 4b14 24bd 52ab 67bc 2282 15bc 3327 d83d
000000f0: 92a6 20bd 6d6c 983d 5c56 00bd 0a5b c4bc
00000100: 3397 d03c 1c95 61ba 7c49 473b 7abe b8bd
00000110: c268 93bd 7ee2 2ebd e2c3 14bd 517e 2abc
00000120: 45f9 be3d 896a 9cbc b11d d2bc 3fa8 aa3c
00000130: 21cc 083d 2b88 acbd cf80 953d 1fe6 313d
00000140: 049c 85bc 5fab 6f3c f137 553d 2863 2cbc
00000150: 14f7 c43d 014d 913d ef24 413d ccf2 723d
00000160: c0a3 d9bb 1fed e3bc 25e9 ae3d 0421 1ebc
00000170: 3414 e0bc 953c bb3d a9e6 07bc 3776 c6bb
00000180: 71a6 853d f2d5 ae3c 666a 323d bbb8 4dbd
00000190: e340 043d 4259 843d fc7c bebd 9f00 4dbd
000001a0: 6396 843d bbb1 6b3d a971 2c3c 6966 c03d
000001b0: 9fb5 cc3d 5bc5 9d3d 3e89 99bc 9f40 d63c
000001c0: 41d4 9bbb 73a0 a5bd 5574 aa3c 83a8 9d3c
000001d0: 722e 88bd 3566 8dbd ce03 64bd 7a01 acbd
000001e0: 4c6e 94bd d7e6 86bd b4e2 90bd 4edb b5bd
000001f0: 5f42 a9bc 7040 b7bd 2fb0 b93b 8476 d1bd
-0.023637459 -0.0792427 -0.10024526 0.042988215 0.01894984 -0.032203842 -0.0016345447 0.0672774
-0.031402767 0.070985176 -0.061122004 0.02885697 0.042929288 -0.023069695 -0.007003187 -0.04558811
-0.017369445 0.061198324 -0.04708582 0.031046258 0.05477986 0.0890626 0.03779574 -0.053209778
0.012402664 -0.024883635 0.08667916 0.064952746 -0.060222402 0.10254412 0.10308959 -0.04481158
0.07966838 0.07004402 0.061258323 0.0022647271 -0.035458386 -0.007542419 0.01164026 -0.002628137
0.021723604 0.087597415 0.072111525 0.049945477 0.03621302 0.05234239 -0.008388602 -0.026864951
-0.024095718 -0.010440077 -0.038141534 -0.08494805 0.10377929 -0.03414256 -0.027551716 0.041943148
-0.040058415 -0.014139967 -0.009125264 0.10554352 -0.039221354 0.074425556 -0.03133236 -0.023969192
0.025462722 -0.0008605288 0.003040879 -0.090207055 -0.07197715 -0.04269647 -0.03631962 -0.010406093
0.09324888 -0.019093769 -0.025648924 0.02083218 0.033397797 -0.084244095 0.07299959 0.04343235
-0.016309746 0.01462826 0.052055303 -0.010521688 0.09617439 0.070947655 0.047154363 0.05931358
-0.006641835 -0.02782303 0.085405625 -0.009651426 -0.027353384 0.091424145 -0.00829474 -0.006056573
0.06525887 0.021342251 0.0435585 -0.050225 0.032288443 0.06462337 -0.09301183 -0.05004942
0.064739965 0.057542544 0.010525146 0.09394533 0.09995579 0.07703658 -0.0187422 0.02615386
-0.0047555272 -0.08087244 0.020807425 0.019245392 -0.06649484 -0.0690426 -0.05566769 -0.08398719
-0.072476 -0.06586998 -0.0707449 -0.0887972 -0.020661531 -0.08947837 0.0056667547 -0.10227683

fc3.weight f4 [1, 128]
00000000: 4bb2 95bd 1d80 3ebd 6843 7fbd 8aaf edbc
00000010: 4d50 023d 70ea 893d c4e7 acbd 0c3b 7f3d
00000020: 95e1 413d 831f 33bd 90fb 4bbd cfbe 8abc
00000030: 9dcf 00bd 3e9f 62bd 46d3 9d3d c907 86bd
00000040: f056 183d a55b fd3c 4c06 9dbd 21e0 533d
00000050: 27c6 2fbd 8c4b df3b c1ed a3bc 66b7 663d
00000060: 59ed 1dbd beb1 593d c04d ae3c bcac 9a3d
00000070: d864 a2bc dca4 7c3d 41e7 843b db35 363d
00000080: adda 5a3d c8a7 6b3d bc31 4fbd ad10 69bd
00000090: 6b83 2b3d 8fbe fb3c 2435 713d 08b6 babd
000000a0: 748a 4ebd 510d b53d da90 a23d 6b6d 8ebd
000000b0: 6e2e 63bd e2b7 453d 7d6b 9f3d b5a4 923d
000000c0: b678 d6bc ad40 37bd ae2c e3bd 5952 b2bd
000000d0: 24c0 7c3d c14b 8ebd dbae b73b f411 9ebc
000000e0: 6ffc 8bbc 34da 9ebc 32fa 6c3d 69ef 5b3d
000000f0: 814c 62bd dd6d 15bc f1e4 b4bd ef6b 9ebd
00000100: bc82 b03d 945d a03d 1a75 113d acd2 cdbc
00000110: 195a 9f3d cdc5 18bd 475d 8d3c 179d 89bc
00000120: b842 8d3d aae5 a53d 2641 82bd 4d60 b43d
00000130: f78e 943d 0fca 89bd 4288 19bd e3d2 1a3d
00000140: 1456 273d a371 ab3c dc20 173d e272 653b
00000150: 24f8 9a3d 886b a1bd fcf1 17bd fad4 e43c
00000160: 4572 3e3d f723 c3bd 9725 2e3d 6d92 263c
00000170: 466a 17bc e48d 983d 0348 b3bd 4436 adbd
00000180: 522b 0bbd da43 a23d 607d 223d 0c44 a33d
00000190: c536 023d 6ae8 8a3d e9c6 53bd fa9a a13d
000001a0: 632f bd3c d924 ee3c 7659 673c 0fb0 823c
000001b0: f3e4 433d aa33 9b3d f212 cdbd 4fac 83bd
000001c0: ce52 1abd 1c1d a3bd 63b1 4bbd c7b8 75bd
000001d0: 3d6f adbd c7c7 4d3d 857e 2cbd 3b4e 86bd
000001e0: f719 1c3d f6ad 82bd f80f abbd 6c2c c8bd
000001f0: bcbb 233d 808f 7abd 6595 3ebc 0813 a1bd
-0.07309397 -0.046508897 -0.062320143 -0.029014368 0.031814862 0.067341685 -0.08442643 0.06231217
0.047334272 -0.043731224 -0.049800456 -0.016936688 -0.031447995 -0.055327646 0.07706313 -0.06544454
0.037192285 0.030927489 -0.07667217 0.051727418 -0.042913582 0.006814426 -0.02001083 0.056327246
-0.03855643 0.053148024 0.021277308 0.07552478 -0.019823477 0.06168066 0.004055888 0.044484954
0.0534312 0.057533056 -0.05058454 -0.05690067 0.041873377 0.030730514 0.05888857 -0.09116751
-0.050425008 0.088404305 0.079377845 -0.069544636 -0.0554642 0.048271067 0.07784174 0.071603216
-0.026180606 -0.044739414 -0.11092506 -0.08707113 0.061706677 -0.06948043 0.005605561 -0.01929567
-0.017088143 -0.019391157 0.057855792 0.053695116 -0.05524874 -0.009120432 -0.088327296 -0.077354304
0.086186856 0.078303486 0.035512067 -0.02512487 0.07780857 -0.037298013 0.017256392 -0.01679854
0.06897491 0.081004456 -0.06360082 0.088074304 0.07253831 -0.06727993 -0.03748346 0.037798773
0.040853575 0.02092821 0.03689657 0.0035011102 0.0756686 -0.07881838 -0.03709601 0.027933586
0.046495695 -0.09528344 0.042516317 0.010166747 -0.009241646 0.074489385 -0.087539695 -0.08457616
-0.03397686 0.07923098 0.03967035 0.07971963 0.031790514 0.06782611 -0.051703367 0.078908876
0.023093885 0.029070305 0.01412045 0.015953092 0.047825765 0.075782135 -0.10013379 -0.0642935
-0.037676625 -0.079645365 -0.049729716 -0.05999067 -0.08468483 0.05023935 -0.042112846 -0.0655789
0.0381107 -0.06380837 -0.08352655 -0.09774098 0.03997396 -0.06117201 -0.011632298 -0.07864958
