mlp_model.pth (torch, 87644 bytes, 5 tensors)

fc1.weight f4 [128, 35]
-0.046500307 0.14579259 0.15105931 -0.011226911 -0.15782908 0.14028902 0.056193564 -0.029863887
-0.0407919 0.048758946 -0.06366128 0.097727515 0.051496092 -0.095309846 0.13005628 -0.10385631
0.028015075 -0.118528515 -0.16134503 0.1384791 -0.041013233 -0.033045568 -0.019046664 0.12649132
0.059894208 -0.10169213 0.02316119 -0.0010545116 0.082707204 0.032686755 0.1340518 0.16466111
-0.09623768 0.019553445 0.062135756 0.03445104 -0.13168548 0.09009039 0.11776412 -0.14744812
-0.013745903 0.08812128 0.13821372 -0.14645326 -0.14745332 0.0079100905 -0.13909219 -0.0577206
-0.04324824 -0.16930513 0.07933091 -0.1025707 0.13095951 0.05778744 0.12481966 -0.016736241
0.04136087 0.19018033 -0.030691708 0.050408516 0.00060246524 -0.09534239 -0.09114973 -0.13270088
-0.15390055 -0.12395867 -0.13215324 0.04894812 -0.15909821 0.034848332 0.12844023 0.062392697
-0.06546032 0.019867653 -0.0927597 -0.14413549 0.013225464 -0.14633863 -0.029914832 0.10137162
0.14380325 0.09828778 0.06599621 -0.07859969 0.0016850199 0.12960783 -0.107611336 0.13991375
0.17222917 0.09772986 -0.15293835 0.0008740882 -0.1692974 0.06478918 0.13273208 -0.054206315
-0.06800294 -0.16726808 -0.0708527 -0.07184448 0.16028692 0.048138954 -0.035839047 0.124618806
-0.056125935 0.0054767583 -0.04746734 -0.02369749 0.06910557 -0.0325532 0.04193547 -0.030494167
0.11245267 -0.018043656 -0.12960571 0.088187784 0.07198584 -0.132748 0.0022949828 0.12691341
0.08858064 -0.00094099116 -0.05991356 0.06938019 -0.019023897 -0.15549903 0.09334725 -0.13761495
-0.09131095 0.07419897 -0.02214335 0.061154526 0.012867539 -0.112010755 -0.024710923 -0.15288866
-0.115857445 -0.12156771 0.1339669 0.020965105 0.02556716 0.04633329 0.102928296 -0.033240452
0.11133134 -0.16574532 -0.104943775 0.16252024 -0.089124836 -0.109643355 0.028454307 -0.050751124
-0.13182345 -0.08522819 0.02310382 -0.104931176 0.033943187 0.11463491 -0.097286575 -0.0451149
0.13389799 -0.025806366 0.097882025 0.06036586 -0.05740322 -0.048949614 0.16373451 -0.09255418
0.015966427 0.06578166 0.081159666 -0.10981909 0.05237133 -0.057878423 -0.08637391 -0.116960086
-0.11881762 -0.007741041 -0.04882665 0.10448621 0.14316688 0.09092475 0.02873067 0.088525996
-0.12766507 -0.14189419 0.035420485 0.1451699 -0.10155524 0.045521047 0.021616828 0.12518185
-0.14330609 0.13344729 0.0004023019 0.009398219 0.046074275 -0.07267401 -0.1085266 -0.03452548
0.02205186 -0.1027637 0.17340271 -0.14314012 -0.16916974 -0.044111356 -0.13809642 0.11539613
-0.1240194 0.13460155 0.15395842 0.031937722 -0.0810194 -0.020126188 0.095657274 -0.16163996
0.11472326 -0.015745874 -0.12856355 0.007137127 0.03947228 0.04143015 -0.14580724 0.0030102255
0.07126671 0.007171721 -0.044504445 -0.12220395 -0.15626799 -0.021135569 0.040182956 0.030212874
0.07603711 0.16014083 0.08859773 -0.027140923 -0.13419755 0.084322445 0.11085041 -0.1514609
-0.053030204 0.05576453 -0.004195592 0.10478451 0.07324248 0.14851007 -0.034596633 0.106580965
0.12471866 0.063739836 0.12506866 0.10602582 0.1148341 -0.13058975 -0.08377566 -0.0075800503
00000000: 1b77 3ebd a74a 153e 4baf 1a3e 14f1 37bc
00000010: f29d 21be eda7 0f3e 392b 663d 1ca5 f4bc
00000020: 6815 27bd 76b7 473d d860 82bd 5d25 c83d
00000030: 91ed 523d cf31 c3bd 792d 053e 9eb2 d4bd
00000040: df7f e53c 14bf f2bd a237 25be 77cd 0d3e
00000050: 7efd 27bd ca5a 07bd c007 9cbc f186 013e
00000060: a153 753d f743 d0bd 89bc bd3c 8a37 8aba
00000070: 6562 a93d 8ce2 053d e044 093e ec9c 283e
00000080: 4318 c5bd 8c2e a03c 1082 7e3d 891c 0d3d
00000090: 8fd8 06be 4f81 b83d 512e f13d a4fc 16be
000000a0: 7f36 61bc ee78 b43d e687 0d3e d8f7 15be
000000b0: 01fe 16be 5399 013c 2f6e 0ebe 706c 6cbd
000000c0: 1125 31bd 535e 2dbe 3f78 a23d 9610 d2bd
000000d0: 401a 063e 86b2 6c3d 73a1 ff3d 711a 89bc
000000e0: 046a 293d a2be 423e 2d6d fbbc 2979 4e3d
000000f0: c2ee 1d3a df42 c3bd b6ac babd bde2 07be
00000100: 1b98 1dbe 0bde fdbd 2e53 07be d37d 483d
00000110: a4ea 22be 20bd 0e3d d685 033e 7c8f 7f3d
00000120: 0f10 86bd 7dc1 a23c ccf8 bdbd 4198 13be
00000130: 9eaf 583c cbd9 15be f30f f5bc ed9b cf3d
00000140: 2941 133e 1b4b c93d 0529 873d e0f8 a0bd
00000150: e3db dc3a eab7 043e 5563 dcbd 8d45 0f3e
00000160: d85c 303e 9826 c83d df9b 1cbe 1123 653a
00000170: 4c5c 2dbe 31b0 843d ebea 073e 7107 5ebd
00000180: 2045 8bbd 5348 2bbe 381b 91bd 3323 93bd
00000190: 4122 243e 5a2d 453d f7cb 12bd 2538 ff3d
000001a0: 4fe4 65bd 6176 b33b 1d6d 42bd 3d21 c2bc
000001b0: 3987 8d3d 8156 05bd 87c4 2b3d e7ce f9bc
000001c0: 964d e63d 4ad0 93bc 5cb7 04be cc9b b43d
000001d0: 506d 933d 17ef 07be 6c67 163b 97f5 013e
000001e0: c469 b53d d9ac 76ba ec67 75bd 3317 8e3d
000001f0: 01d8 9bbc 233b 1fbe d82c bf3d efea 0cbe
00000200: 3c01 bbbd a1f5 973d f965 b5bc 2b7d 7a3d
00000210: 5fd2 523c e565 e5bd 906e cabc d88e 1cbe
00000220: ab46 edbd 7ef8 f8bd 9e2e 093e 03bf ab3c
00000230: 3972 d13c fac7 3d3d 12cc d23d 2427 08bd
00000240: b001 e43d 24b9 29be c3ec d6bd b56b 263e
00000250: 1587 b6bd b28c e0bd 0219 e93c 69e0 4fbd
00000260: bafc 06be 1e8c aebd 3944 bd3c 28e6 d6bd
00000270: 0308 0b3d b5c5 ea3d 2f3e c7bd 67ca 38bd
00000280: 8e1c 093e df67 d3bc 5f76 c83d 3142 773d
00000290: a41f 6bbd 647f 48bd 05aa 273e 0c8d bdbd
000002a0: 06cc 823c 89b8 863d 0a37 a63d d5e8 e0bd
000002b0: 5283 563d ed11 6dbd cee4 b0bd c588 efbd
000002c0: a756 f3bd 8fa8 fdbb 74fe 47bd defc d53d
000002d0: 579a 123e c136 ba3d 955c eb3c 1e4d b53d
000002e0: a2ba 02be b64c 11be 1215 113d 6ba7 143e
000002f0: 32fc cfbd 4774 3a3d c615 b13c ac2f 003e
00000300: d5be 12be 68a6 083e 0cec d239 fdfa 193c
00000310: 61b8 3c3d 1dd6 94bd 3243 debd 976a 0dbd
00000320: 1aa6 b43c c675 d2bd 7b90 313e 5393 12be
00000330: d53a 2dbe 1cae 34bd 2669 0dbe ce54 ec3d
00000340: e2fd fdbd fdd4 093e 47a7 1d3e 21d1 023d
00000350: 80ed a5bd addf a4bc f6e7 c33d f284 25be
00000360: 07f4 ea3d 7efd 80bc 2aa6 03be 90de e93b
00000370: afad 213d a9b2 293d 7e4e 15be 3447 453b
00000380: 48f4 913d c200 eb3b 4b4a 36bd 1146 fabd
00000390: b704 20be 8024 adbc e296 243d fd80 f73c
000003a0: 58b9 9b3d f5fb 233e ba72 b53d a456 debc
000003b0: 156b 09be 3fb1 ac3d 8a05 e33d 9118 1bbe
000003c0: 3336 59bd 5969 643d 2d7b 89bb 4399 d63d
000003d0: 2700 963d 0613 183e 33b5 0dbd 1f47 da3d
000003e0: 7f6c ff3d 088a 823d 0012 003e 1124 d93d
000003f0: 242e eb3d 52b9 05be 9392 abbd 1262 f8bb

fc1.bias f4 [128]
0.15840164 -0.01973059 -0.0023114712 -0.017356247 0.16137706 -0.032659523 0.08662183 0.07696372
0.014093467 -0.11936696 0.10305783 0.1704003 -0.071033396 0.16410974 0.093230516 0.08862605
-0.13897713 0.003653616 -0.05175816 0.013631317 0.08421906 -0.11638883 -0.026235081 -0.058228705
0.02778225 0.1108161 0.09415851 -0.012776783 -0.08682105 -0.050227713 0.083709404 0.18495461
0.0064906497 -0.17083402 -0.034200557 -0.16253532 -0.031544715 0.0993968 -0.05201224 -0.011108197
-0.06051598 0.08373819 0.09069924 -0.11120982 0.0027859767 -0.10400465 0.14613542 0.14401545
-0.093513 0.055098508 0.13310872 0.04511277 0.058346003 0.070230074 0.015907034 -0.16959625
-0.08497557 0.116638936 0.09489009 0.12139966 -0.023530032 0.12080342 -0.07394149 0.13445437
-0.13258797 -0.05588468 -0.009175008 -0.08554964 0.039307687 -0.0865247 0.011363326 0.018426498
-0.12504876 -0.026778277 -0.13518548 0.12281671 -0.061118003 0.1323 0.11973183 -0.11295258
-0.06653486 -0.15798399 -0.04720384 -0.03914667 0.15779115 -0.016053371 -0.11177956 0.014594181
0.1387502 -0.046650033 0.089009404 -0.14303832 0.10522217 0.042430874 -0.045120038 -0.1425463
0.16110961 0.011281006 0.03963078 -0.06653707 0.13346936 -0.12783647 0.08243058 -0.10003446
-0.020633936 -0.034571677 0.17198172 -0.108914874 0.04445482 0.098530106 0.13433872 0.11803413
0.07308093 -0.08296316 0.092674725 -0.16009775 -0.10211611 -0.09956793 -0.06293622 -0.07729959
-0.02974239 0.10120393 0.097821005 -0.12713042 0.18530689 -0.11910286 0.067751125 0.08430127
00000000: 0a34 223e 0ca2 a1bc 0d7c 17bb b02e 8ebc
00000010: 0740 253e fec5 05bd c966 b13d 289f 9d3d
00000020: 49e8 663c aa76 f4bd fc0f d33d 6b7d 2e3e
00000030: f579 91bd 620c 283e a4ef be3d 9381 b53d
00000040: 0550 0ebe 8171 6f3b 5d00 54bd e355 5f3c
00000050: 0b7b ac3d 445d eebd f4ea d6bc 3981 6ebd
00000060: 9a97 e33c 8df3 e23d 2dd6 c03d b655 51bc
00000070: 3ccf b1bd 93bb 4dbd d66f ab3d be64 3d3e
00000080: 84af d43b 1def 2ebe e215 0cbd a96f 26be
00000090: 0835 01bd 8d90 cb3d c90a 55bd 28ff 35bc
000000a0: 9bdf 77bd ee7e ab3d 86c0 b93d f9c1 e3bd
000000b0: ef94 363b 6400 d5bd 86a4 153e c978 133e
000000c0: be83 bfbd f9ae 613d a74d 083e 2bc8 383d
000000d0: 38fc 6e3d c9d4 8f3d 784f 823c a4aa 2dbe
000000e0: ac07 aebd 65e0 ee3d bc55 c23d 63a0 f83d
000000f0: 0ec2 c0bc c967 f73d a36e 97bd 68ae 093e
00000100: 24c5 07be 56e7 64bd c652 16bc a634 afbd
00000110: 1901 213d dd33 b1bd 3e2d 3a3c 2bf3 963c
00000120: c80c 00be 1e5e dbbc 106e 0abe 5487 fb3d
00000130: df56 7abd a779 073e f635 f53d af53 e7bd
00000140: 6e43 88bd 8ec6 21be d058 41bd 4258 20bd
00000150: 0194 213e 5c82 83bc afec e4bd 6f1c 6f3c
00000160: 8814 0e3e 1b14 3fbd 904a b63d a378 12be
00000170: b97e d73d ffcb 2d3d cacf 38bd a8f7 11be
00000180: ebf9 243e f8d3 383c e353 223d 9644 88bd
00000190: 31ac 083e 90e7 02be 5dd1 a83d dede ccbd
000001a0: 8008 a9bc 089b 0dbd fa1b 303e c30e dfbd
000001b0: 4216 363d 27ca c93d 1790 093e e1bb f13d
000001c0: 74ab 953d 97e8 a9bd 3fcc bd3d aaf0 23be
000001d0: 4022 d1bd 45ea cbbd b4e4 80bd 3f4f 9ebd
000001e0: 50a6 f3bc 0244 cf3d 6156 c83d 7a2e 02be
000001f0: 17c1 3d3e 33ec f3bd 1ac1 8a3d 25a6 ac3d

fc2.weight f4 [128, 128]
0.040000893 -0.028449845 0.022511294 0.06388973 -0.034429844 0.05341154 -0.07759315 0.07139089
0.08089977 0.01284547 -0.04277136 -0.027238455 0.018544724 0.06615905 0.07285815 0.048669487
-0.021055069 -0.039089087 -0.07989434 0.057182353 0.05980047 -0.044231262 -0.02977318 0.011653575
-0.079718016 -0.054948717 -0.041827884 0.022533448 0.050268598 0.052201774 0.06941583 -0.027183555
-0.048207983 0.03140209 -0.0574465 0.06300921 0.07305349 0.076792635 -0.0316131 0.010470125
-0.003677332 -0.033690665 -0.07533818 -0.028414762 0.010773021 0.019388137 0.07293726 -0.029160704
0.06306457 -0.073982775 0.043318234 -0.063262954 -0.07797206 0.08374563 -0.017534815 -0.038164377
-0.04853358 -0.06948159 -0.055655356 0.081037685 -0.03856758 -0.017216155 -0.057209555 -0.021263234
0.036340002 0.04012722 0.0831406 -0.06670277 0.08073238 0.017794581 -0.04106423 0.038562022
-0.054260824 0.055985555 0.004802871 0.07734442 -0.013087527 0.06383086 0.06567546 0.013109031
0.04957646 -0.011865914 0.030721482 0.06309272 -0.053578805 -0.0765454 0.064558186 0.07463339
0.04035267 0.07607331 0.043147925 0.0764246 0.041770503 0.002369749 0.027888304 -0.06192141
0.0618325 0.052719582 -0.07394746 -0.0016332335 0.09453159 0.05892241 0.026271995 -0.06505641
-0.07459586 -0.038089536 -0.037880834 -0.0393644 0.030766511 0.08642524 -0.011130246 -0.082767084
0.040006083 0.014725914 0.06472199 0.04799075 -0.013330261 -0.0076472433 0.006004975 -0.06557408
-0.02282563 -0.04287758 0.004370992 -0.011685829 -0.0008858654 -0.046470854 0.08893135 -0.046470594
-0.020244597 -0.09019699 -0.012132868 0.03422672 -0.03601942 0.040116116 0.052289017 0.01407274
0.05710885 0.058029287 -0.047275875 0.029009962 -0.088175505 -0.026358422 -0.054516435 0.061377514
0.0014488552 0.03671011 -0.019077545 -0.054024804 -0.077534705 -0.07243532 0.028175509 -0.040360544
-0.0024370826 0.05797271 -0.002469485 0.040349767 0.05102452 -0.009451508 0.010023346 -0.03690783
-0.037024412 -0.06442642 0.05576258 -0.07682725 0.0332009 0.028918933 -0.0073808064 0.03423474
-0.026358025 0.07248678 -0.019166885 0.0699936 -0.060701195 -0.023146005 -0.07336722 -0.036308993
-0.037421186 0.019920196 -0.05051206 -0.04888448 0.06539044 0.013064479 0.039110724 0.07321484
0.06408907 -0.07566373 -0.013679017 -0.014146545 -0.027651725 0.03981478 0.014804161 -0.053423107
-0.06278913 -0.079260126 -0.07460284 -0.048419144 -0.0714742 0.07156007 0.048243858 -0.08252153
-0.071677685 0.01332614 0.06828067 -0.024891337 0.06938559 0.042517185 -0.0061741103 0.00844614
-0.04741754 0.06767286 -0.0018648317 -0.022470353 -0.07828764 0.055852216 0.061135896 0.038953733
0.06253233 -0.046755612 -0.019257823 -0.06607582 0.05398974 -0.08284506 0.020885084 -0.03325766
0.07108656 0.04495099 0.03963487 0.006562135 0.0048769508 0.08179908 -0.08127017 -0.038933314
-0.023441143 0.026183844 0.008257194 -0.057979226 0.06158773 -0.04109269 0.05867985 0.010209185
-0.00014657428 0.09163908 -0.031107292 -0.093976155 0.09102822 -0.07663914 0.06587212 0.04621261
0.04972673 -0.06221946 -0.073321134 -0.0691684 0.056828044 0.055601012 0.018966705 0.07380208
00000000: fad7 233d a60f e9bc 9b69 b83c 9ed8 823d
00000010: 4f06 0dbd 0fc6 5a3d 28e9 9ebd 6335 923d
00000020: c7ae a53d ce75 523c 0631 2fbd 2e23 dfbc
00000030: 1beb 973c 657e 873d a736 953d a859 473d
00000040: ae7b acbc e11b 20bd a59f a3bd 0b38 6a3d
00000050: 56f1 743d d72b 35bd e2e6 f3bc a3ee 3e3c
00000060: 3343 a3bd e811 61bd b753 2bbd 1198 b83c
00000070: 72e6 4d3d 87d1 553d e329 8e3d 0cb0 debc
00000080: bc75 45bd 7a9f 003d 054d 6bbd f90a 813d
00000090: 119d 953d 7545 9d3d bd7c 01bd e38a 2b3c
000000a0: 65ff 70bb 39ff 09bd e74a 9abd 13c6 e8bc
000000b0: 5381 303c dfd3 9e3c 2160 953d 6ee2 eebc
000000c0: ff27 813d 4884 97bd 766e 313d 0290 81bd
000000d0: d1af 9fbd d482 ab3d 2ca5 8fbc 4052 1cbd
000000e0: 26cb 46bd 5d4c 8ebd dff6 63bd 16f7 a53d
000000f0: 0af9 1dbd e508 8dbc 9154 6abd 3c30 aebc
00000100: 41d9 143d 715c 243d 9e45 aa3d 769b 88bd
00000110: 0557 a53d f1c5 913c f732 28bd 36f3 1d3d
00000120: 9940 5ebd 1c51 653d 6761 9d3b c066 9e3d
00000130: 116d 56bc c1b9 823d db80 863d 43c7 563c
00000140: b010 4b3d 4069 42bc 9eab fb3c c236 813d
00000150: 7375 5bbd d6c3 9cbd 1537 843d 64d9 983d
00000160: d748 253d 53cc 9b3d e1bb 303d 8084 9c3d
00000170: 8c17 2b3d ca4d 1b3b 0376 e43c 4ea1 7dbd
00000180: 1344 7d3d 7df0 573d c471 97bd 3912 d6ba
00000190: c799 c13d a058 713d 5e38 d73c 4c3c 85bd
000001a0: b7c5 98bd c603 1cbd ef28 1bbd 913c 21bd
000001b0: 0d0a fc3c b7ff b03d a35b 36bc ca81 a9bd
000001c0: 6bdd 233d f644 713c f68c 843d f391 443d
000001d0: 2b67 5abc ba95 fabb 62c5 c43b b44b 86bd
000001e0: d1fc babc 67a0 2fbd 8a3a 8f3b eb75 3fbc
000001f0: 6c39 68ba 3958 3ebd a421 b63d f357 3ebd
00000200: ffd7 a5bc 33b9 b8bd f0c8 46bc 5131 0c3d
00000210: 1989 13bd cc50 243d 022d 563d 5a91 663c
00000220: f8ea 693d 1eb0 6d3d 59a4 41bd 4da6 ed3c
00000230: 5c95 b4bd 9eed d7bc a04c 5fbd fd66 7b3d
00000240: 83e7 bd3a 575d 163d 8348 9cbc 1d49 5dbd
00000250: 84ca 9ebd f858 94bd 53d0 e63c 1951 25bd
00000260: 76b7 1fbb cb74 6d3d 15d7 21bb cc45 253d
00000270: 16ff 503d 7fda 1abc f638 243c aa2c 17bd
00000280: e9a6 17bd 00f2 83bd 4e67 643d 9b57 9dbd
00000290: abfd 073d 66e7 ec3c b1da f1bb ba39 0c3d
000002a0: c9ec d7bc f373 943d df03 9dbc ce58 8f3d
000002b0: d1a1 78bd b19c bdbc 8e41 96bd bdb8 14bd
000002c0: f546 19bd ae2f a33c bce5 4ebd 183b 48bd
000002d0: 6ceb 853d 660c 563c 9132 203d a9f1 953d
000002e0: 2141 833d 96f5 9abd f51d 60bc e9c6 67bc
000002f0: df85 e2bc d314 233d 278d 723c 30d2 5abd
00000300: 9697 80bd 2253 a2bd 60c9 98bd 2753 46bd
00000310: 1161 92bd 168e 923d 5a9b 453d 0c01 a9bd
00000320: c0cb 92bd e255 5a3c bcd6 8b3d ebe8 cbbc
00000330: 081a 8e3d 8026 2e3d 3150 cabb ae61 0a3c
00000340: e538 42bd 1298 8a3d 5e6d f4ba bf13 b8bc
00000350: 4555 a0bd 4bc5 643d a269 7a3d f38d 1f3d
00000360: f310 803d d082 3fbd 95c2 9dbc c252 87bd
00000370: 5824 5d3d acaa a9bd 3217 ab3c 2f39 08bd
00000380: d595 913d 871e 383d 2c58 223d 2e07 d73b
00000390: d4ce 9f3b 4786 a73d fa70 a6bd 8a78 1fbd
000003a0: a407 c0bc 807f d63c 2f49 073c a07b 6dbd
000003b0: 6a43 7c3d cf50 28bd 485a 703d 6d44 273c
000003c0: bcb1 19b9 45ad bb3d b8d4 febc 9276 c0bd
000003d0: 016d ba3d fbf4 9cbd f6e7 863d 6f49 3d3d
000003e0: 41ae 4b3d d5d9 7ebd 6429 96bd 29a8 8dbd
000003f0: 86c4 683d e3bd 633d 1060 9b3c 8b25 973d

fc2.bias f4 [128]
0.034008313 -0.059119355 0.0040376056 -0.021381335 0.031843945 -0.05923769 -0.06337261 -0.06633615
0.035279214 -0.027567402 0.06551551 0.0115061635 -0.031265415 -0.0108748 -0.044583343 -0.055324715
0.012385108 -0.09346469 -0.03890239 -0.07443314 -0.0071934625 0.013242141 -0.07143027 -0.0026745584
0.012414634 -0.026290366 0.05149003 0.095745146 -0.059128895 -0.0020683396 -0.0011318269 -0.034234628
-0.03205858 0.0055633183 0.03878394 -0.015028973 -0.061026413 0.0068768817 -0.0069745807 -0.06603568
0.012509893 0.079581104 0.06297978 -0.07099162 0.050577357 -0.04034906 0.018018367 -0.013871209
-0.028111396 0.05193743 -0.061944187 -0.03926263 -0.004297923 0.024075424 0.008728565 -0.07686834
-0.034965333 0.07413733 -0.04989862 0.05317758 0.003577208 0.07405585 -0.08565555 -0.003322724
-0.06736131 0.009147585 -0.03160927 -0.085634895 -0.026559463 -0.038527794 -0.06011695 0.08710055
0.09597362 0.036796838 0.06893197 -0.06802555 0.066752456 -0.06434419 -0.09726341 -0.020154068
-0.0014103295 0.039379854 0.04541823 -0.035902448 -0.008524164 0.009844258 -0.02709441 -0.063863784
0.045355756 0.031142699 -0.05874509 -0.004259993 -0.023939265 -0.046831153 -0.05535446 0.027624909
0.09799324 0.07954961 -0.07351016 -0.0645224 0.0012992807 -0.0007963934 0.028278954 0.0024058977
-0.045008868 0.010590424 -0.028546331 0.012361905 -0.08383179 -0.013218232 0.03196035 -0.06868903
-0.03516862 0.08052504 0.024539828 -0.029397773 -0.0072092493 0.061537895 0.0060385396 0.027729917
0.023236973 -0.07693678 -0.018816043 0.041663233 -0.05475816 0.08630763 0.048745878 0.039015144
00000000: 4d4c 0b3d 2327 72bd e44d 843b e927 afbc
00000010: cc6e 023d 38a3 72bd 80c9 81bd 3fdb 87bd
00000020: f080 103d 08d5 e1bc ff2c 863d 5984 3c3c
00000030: 2a10 00bd 382c 32bc 069d 36bd 2b9c 62bd
00000040: e8ea 4a3c 6a6a bfbd 1d58 1fbd 6770 98bd
00000050: 23b7 ebbb 91f5 583c 094a 92bd a547 2fbb
00000060: c066 4b3c e55e d7bc 36e7 523d 0816 c43d
00000070: 2431 72bd fb8c 07bb cf59 94ba 9c39 0cbd
00000080: dc4f 03bd 7f4c b63b e9db 1e3d 153c 76bc
00000090: d5f6 79bd 7757 e13b 068b e4bb b73d 87bd
000000a0: 4bf6 4c3c 6bfb a23d 8bfb 803d 0e64 91bd
000000b0: 342a 4f3d 0e45 25bd 419b 933c 1144 63bc
000000c0: df49 e6bc 58bc 543d 30b9 7dbd dad1 20bd
000000d0: 97d5 8cbb d339 c53c 4102 0f3c 266d 9dbd
000000e0: cf37 0fbd 50d5 973d 7f62 4cbd bcd0 593d
000000f0: 976f 6a3b 98aa 973d 2d6c afbd 0fc2 59bb
00000100: baf4 89bd c1df 153c b978 01bd 5961 afbd
00000110: 3b93 d9bc 52cf 1dbd 313d 76bd c661 b23d
00000120: d18d c43d 48b8 163d 342c 8d3d fb50 8bbd
00000130: 83b5 883d e3c6 83bd 0a32 c7bd 251a a5bc
00000140: ceda b8ba c54c 213d 7708 3a3d 720e 13bd
00000150: efa8 0bbc d049 213c 19f5 ddbc 04cb 82bd
00000160: f5c6 393d f91e ff3c b19e 70bd 6997 8bbb
00000170: 471c c4bc 06d2 3fbd 5cbb 62bd a24d e23c
00000180: aeb0 c83d e8ea a23d 7f8c 96bd 5224 84bd
00000190: a04c aa3a 0ec5 50ba 44a9 e73c 44ac 1d3b
000001a0: 385b 38bd 7583 2d3c ffd9 e9bc 9689 4a3c
000001b0: 00b0 abbd 4991 58bc dbe8 023d d6ac 8cbd
000001c0: f90c 10bd 50ea a43d c007 c93c 99d3 f0bc
000001d0: 913b ecbb 290f 7c3d f1de c53b da29 e33c
000001e0: 775b be3c 0891 9dbd 1a24 9abc 11a7 2a3d
000001f0: 184a 60bd 0ec2 b03d c2a9 473d 58ce 1f3d

fc3.weight f4 [1, 128]
0.05698993 -0.040088028 0.061752878 0.07113395 -0.029303433 -0.01661412 -0.094731405 -0.06985972
0.025926152 -0.06396944 0.06650779 -0.053651657 -0.040530458 0.021443298 0.076927215 0.05290368
-0.0390776 -0.033011593 -0.05712716 -0.070675984 -0.03337063 0.05908838 -0.0259541 -0.053636488
0.08841053 0.062371604 -0.013824735 0.019067507 0.051518947 -0.049354628 0.06884668 0.046377838
-0.054616068 0.07520937 0.0057497504 0.06241269 0.0663907 -0.03494802 0.04664637 -0.04575947
-0.039153263 0.00224797 -0.07599563 -0.06482853 -0.01681915 0.039022356 0.030450583 0.054052252
-0.10259731 -0.076092236 0.13154802 0.07965168 0.048335854 0.09075283 0.071274295 0.06868972
-0.023072181 -0.05120311 -0.06550555 0.014142511 -0.009779993 -0.07283088 -0.07737917 0.026902942
-0.07901991 0.019893156 0.085068814 -0.060346577 -0.018634224 0.02109248 0.030846592 0.049390323
0.0631209 -0.015465097 -0.07949948 0.07031763 -0.019266067 0.03178598 -0.034105048 0.079813175
0.033207294 0.01776127 -0.06967659 -0.031079896 -0.036678262 -0.017998267 0.07482102 0.08350859
-0.02455912 -0.026740653 0.07009181 -0.053554714 0.07781869 0.08558436 -0.058836598 0.07856113
0.020059785 0.03563194 -0.0795308 -0.0928746 -0.07475865 -0.037936617 0.08643775 -0.061179988
0.01180048 -0.09506649 -0.045696385 -0.06845558 -0.01773357 0.013026493 0.049105857 -0.06701887
0.04741797 0.036510758 0.049937002 0.087011814 0.020988043 -0.09489051 -0.013903902 0.085939296
-0.07789917 -0.09345991 0.05013623 0.06478437 0.018141894 0.034992177 -0.06313637 0.06455264
00000000: 466e 693d 5833 24bd 96f0 7c3d adae 913d
00000010: c10d f0bc 561a 88bc 8a02 c2bd 9d12 8fbd
00000020: 1563 d43c 6902 83bd 3c35 883d d7c1 5bbd
00000030: 4403 26bd dba9 af3c 048c 9d3d 87b1 583d
00000040: d50f 20bd 2a37 07bd 2bfe 69bd 92be 90bd
00000050: a4af 08bd a806 723d b19d d4bc efb1 5bbd
00000060: 9410 b53d 5e79 7f3d 2481 62bc 7633 9c3c
00000070: 8805 533d 1428 4abd 7dff 8c3d b0f6 3d3d
00000080: 19b5 5fbd 5f07 9a3d 6768 bc3b 73a4 7f3d
00000090: d9f7 873d a825 0fbd 4410 3f3d 486e 3bbd
000000a0: 2c5f 20bd ae52 133b 99a3 9bbd d2c4 84bd
000000b0: 50c8 89bc e8d5 1f3d 8073 f93c e565 5d3d
000000c0: 8a1e d2bd 3fd6 9bbd 86b4 063e 6c20 a33d
000000d0: d1fb 453d 9fdc b93d 42f8 913d 32ad 8c3d
000000e0: df01 bdbc 5aba 51bd c627 86bd feb5 673c
000000f0: 443c 20bc 5b28 95bd f878 9ebd 8f63 dc3c
00000100: 31d5 a1bd f9f6 a23c 8f38 ae3d f92d 77bd
00000110: cda6 98bc 23ca ac3c feb1 fc3c 824d 4a3d
00000120: 8845 813d 5161 7dbc a0d0 a2bd b102 903d
00000130: dfd3 9dbc 0432 023d bcb1 0bbd 1775 a33d
00000140: 5f04 083d 1580 913c 9ab2 8ebd 449b febc
00000150: f23b 16bd 1a71 93bc c33b 993d 8d06 ab3d
00000160: 3530 c9bc 370f dbbc 4b8c 8f3d 305c 5bbd
00000170: 685f 9f3d da46 af3d a5fe 70bd a8e4 a03d
00000180: 6b54 a43c ccf2 113d 0be1 a2bd 0a35 bebd
00000190: 101b 99bd 6d63 1bbd 4606 b13d de97 7abd
000001a0: cd56 413c 38b2 c2bd 222c 3bbd 7032 8cbd
000001b0: fe45 91bc 126d 553c 3923 493d 3041 89bd
000001c0: 5839 423d 4e8c 153d be8a 4c3d 4033 b23d
000001d0: 1eef ab3c f555 c2bd 31cd 63bc f100 b03d
000001e0: 9a89 9fbd e967 bfbd a65b 4d3d abad 843d
000001f0: 4f9e 943c f553 0f3d a44d 81bd 2d34 843d
